data_analysis/model.pkl (torch_old, 132917 bytes, 3 tensors)

fc1.weight f4 [128, 256]
00000000: 68e2 e63c c6f4 aabc 63ef 74bc a94d ff3c
00000010: 4289 5cbd 0478 fe3c 899b 83bc f099 e43c
00000020: a982 143c 25ef caba 98c5 a13c 0faa 13bb
00000030: 91a1 f33c b74f a6bc 95d0 44bc d1b3 8739
00000040: 5ee1 333c fd21 db3b a8ca 5d3d 6085 d13c
00000050: 2441 89bc 5f86 22bd 87c8 60bc 3bc2 d2bc
00000060: 7035 bebc 603f 1039 e2f0 313d 353d f63c
00000070: 1488 85bd 7263 3a3d d0b4 c43c 9ec9 813d
00000080: 0eed 3b3d ad47 52bd 4f4a 80bd 226f eabc
00000090: b9cd 793d f33b 83bc 5aab f33c 68cd 10bd
000000a0: f240 603d 275e 98bc 57fc 523d 3f2a d43b
000000b0: 1318 1fbd 4bed e43c 1839 e3bc c26e c83c
000000c0: 9a0e b5bc 24d9 42bc bbc2 6bbd 83a0 dfbc
000000d0: d2f5 163d d187 a2bc 151a 643d 9e37 333d
000000e0: 6084 c7bb 6001 47bd 0c11 123d 2885 b43c
000000f0: 7ed4 3fbd e9f9 083d a619 033d ff83 5f3d
00000100: 2b17 26bd 5de8 50bc 195e 033b bcfd 473b
00000110: 71f7 49bd 9728 46bd 9aed de3c 5cec 84bc
00000120: 5397 ce3c 493c 283c 8a03 cc3c df6c 013c
00000130: e2ec 903c fc34 093d ed02 82bd 3a0e c73c
00000140: a734 50bd da7f 25bd 4abc 2c3a bed0 81bc
00000150: b55d f43c 64f9 2abd b416 72bd 3ca1 533d
00000160: e588 7cbc 767e 253d ab75 cb3c 8ee1 23bd
00000170: bc6d 9d3c c9cb af3c dbb5 14bd 0b28 00bd
00000180: 14be 6f3c 3c5c 7c3b 83bc f8bc 6f1e b4bc
00000190: 9200 4c3d cb9e 32bc 01f0 2d3d dc47 073d
000001a0: 9dcf 3bbd 15ac 43bd 2247 7d3d e1ad 10bb
000001b0: dba4 213d 2d15 f73b fa35 763c 1ab2 493d
000001c0: 7c75 583d bfc1 46bd f13b 513c 7619 2c3d
000001d0: ec38 563d bde4 183d 5dee 56bd 3299 49bd
000001e0: 6cb0 38bd c881 1f3b d732 743d a57b 24bd
000001f0: 24f9 213d ec68 f1bc f349 57bd bb37 ffbb
00000200: 9e07 293d 6beb 613d a796 0ebd 931f ab3c
00000210: 9f04 703d f9cc 3a3d eef0 203d 8ac6 503d
00000220: 4368 3e3d 36ee 2e3c 1d5c 1abd c9e8 3abd
00000230: a694 0abd c0e1 9fbb 1358 35bd a6f2 933c
00000240: b1b4 763c 1e71 fabb 1447 8e3c ba7d 583c
00000250: 097b 373d 285f 453d d569 78bc 2050 623d
00000260: bdc4 60bc c163 10bc 464a 5bbd 8428 39bd
00000270: 9dba ffbc f814 debc 4430 1e3d 470c dbbc
00000280: ea32 5bbd 68f7 ff3c af5e 9a3c 30e0 2c3d
00000290: 2164 21bd 42a1 3c3c 12b2 e2bc c29e acbc
000002a0: 3f8f 57bd e0c1 eebc 8959 4bbc 6675 033d
000002b0: 7878 8e3c ef9c 1e3c dcbf 8d3d 586b 6c3d
000002c0: 4e96 373d 89f2 62bb 5c87 30bd 7a20 603d
000002d0: 8f8b 41bc 345b 8ebb acb0 78bd 9cd0 19bc
000002e0: b354 3cbd aac7 653d 90d9 76bd 1262 61bd
000002f0: e976 d8bb 180a e7bc b0fb e33c c549 88bc
00000300: 5b65 11bd 4e48 2abb fc40 553d cc5c 1cbd
00000310: 2d44 073d 9fa0 3a3d 45a0 8a3d 2514 38bd
00000320: da69 223c 1ffa 51bd 8723 783d 0647 9dbc
00000330: 950c 013d 1d44 95ba 94bd 1b3b 8df7 fbbb
00000340: 21b4 8e3c 2382 c03c aa10 fa3b 382f d33c
00000350: 8ecb 80bd 3f65 2a3d 728d 4a3d 1216 6e3d
00000360: 75d9 5a3d d935 54bd 6efb edbc 46d6 473d
00000370: e051 5ebd 8c54 813d c6ac 31bd dc82 52bd
00000380: f1be 173d 359a 20bd feb5 08bc d983 543d
00000390: 7bda 383d 0a32 843d 37e9 fabb 7de9 2cbd
000003a0: fac4 703d 0bc0 00bc 269e 9dbc 15c6 993c
000003b0: 072c 46bd 28b9 423d ffc4 313d a657 65bd
000003c0: b0c3 38bd a99b 45bc 65fb 053d 2261 923a
000003d0: bd49 1dbd 8d8b 8e3b 8d85 85bd fbed 36bd
000003e0: 7599 13bd e930 5a3d f55b 4b3d 4392 ccbc
000003f0: f539 113c bdf4 103d 93db 853b a604 c3bc
0.02818413 -0.02086867 -0.014949652 0.031164961 -0.053841837 0.031063087 -0.016065376 0.027905434
0.009064355 -0.0015482648 0.01974754 -0.0022531783 0.029740127 -0.020301683 -0.01201262 0.0002588318
0.010979025 0.0066874013 0.054148346 0.025576293 -0.016754694 -0.039678928 -0.013719684 -0.025727382
-0.02321884 0.00013756519 0.043442614 0.030058483 -0.065200955 0.045504995 0.024012 0.063372836
0.04588037 -0.051337887 -0.06264173 -0.028617445 0.060987208 -0.016019797 0.029744793 -0.03535214
0.054749437 -0.018599583 0.05151018 0.0064747627 -0.03884132 0.027945181 -0.027737185 0.024466876
-0.02210169 -0.011892591 -0.057558756 -0.027298218 0.036855526 -0.019840153 0.055688936 0.043754213
-0.0060887784 -0.048585296 0.03566079 0.02203615 -0.046833508 0.033441458 0.032006882 0.05456924
-0.04054944 -0.012750712 0.00200451 0.0030516228 -0.049308244 -0.048378553 0.027212907 -0.016225986
0.025218641 0.010268279 0.024904031 0.007899492 0.01769108 0.033497795 -0.06348214 0.024298776
-0.050831463 -0.040405132 0.00065893366 -0.015846606 0.02982984 -0.041741744 -0.059103683 0.051667437
-0.015413498 0.040403806 0.024836382 -0.040010028 0.019217364 0.021459477 -0.036306243 -0.031288188
0.0146327205 0.0038507124 -0.030363327 -0.021987168 0.04980523 -0.010902117 0.042465214 0.033027515
-0.045852292 -0.047771532 0.061835416 -0.0022076296 0.03946386 0.007540366 0.015027517 0.049242117
0.052846417 -0.048524614 0.012770639 0.04201647 0.05230038 0.037327517 -0.052473415 -0.049218364
-0.045090124 0.002433883 0.059618797 -0.04015698 0.03954424 -0.029468976 -0.052560758 -0.007788626
0.04126703 0.055156153 -0.034811642 0.02088908 0.058598157 0.045605633 0.03929227 0.05097059
0.04648615 0.010676911 -0.037685502 -0.045632157 -0.03383317 -0.0048792064 -0.044273447 0.01806004
0.015057729 -0.007642879 0.017367877 0.013213569 0.04479507 0.04818645 -0.015161951 0.055252194
-0.013718781 -0.008812846 -0.05353763 -0.045204654 -0.031216914 -0.027109608 0.03862025 -0.026739253
-0.053515352 0.031245902 0.018843977 0.04220599 -0.03940213 0.011513056 -0.027672801 -0.021071795
-0.052626844 -0.029145181 -0.012411484 0.03209438 0.017391428 0.009680971 0.0692136 0.05771956
0.044821076 -0.0034629425 -0.04309784 0.054718472 -0.0118130585 -0.0043443684 -0.060715362 -0.009388115
-0.045979213 0.056098618 -0.060266078 -0.055025168 -0.006605972 -0.028203055 0.027829975 -0.016636739
-0.03549705 -0.0025983038 0.052063927 -0.038174435 0.033024002 0.045563336 0.0676885 -0.044941086
0.009912932 -0.051263925 0.060580757 -0.019198906 0.03150614 -0.0011388097 0.002376412 -0.0076894225
0.017419877 0.023499554 0.007631381 0.025779352 -0.06288825 0.041600462 0.0494513 0.058126517
0.05343004 -0.051809166 -0.029050555 0.04878833 -0.0542773 0.06314954 -0.04337766 -0.05139433
0.03704733 -0.039209563 -0.008344172 0.051883552 0.045130234 0.06454857 -0.007657196 -0.04221486
0.0587816 -0.007858287 -0.01924045 0.01877121 -0.04838183 0.04753986 0.04340076 -0.05599179
-0.045108497 -0.012061038 0.03271045 0.0011167864 -0.0384004 0.004350132 -0.065196134 -0.04466055
-0.03603502 0.0532693 0.049648244 -0.024972087 0.008863916 0.03538965 0.004085013 -0.023805927

fc1.bias f4 [128]
00000000: 01aa c33c 014d 0f3d e7a0 9abc 17cd 0f3c
00000010: c2f1 d53c 0d85 933c 154e 54bd 64fd 813c
00000020: f0d7 62bd bc28 e4bc 4d96 0fbd b4b9 803d
00000030: 4c3d 33bd cea9 8cba 2e2e 51bd 8ec5 3a3d
00000040: 66d8 ecbb 945a 833d a3ce 9ebc 723c 52bc
00000050: 041d 2fbd 7489 5d3c ed78 fbbc 6271 3cbb
00000060: d210 0e3d 4dd7 15bd 5299 203d 3842 0b3d
00000070: a720 a23b fd7d 783d c177 253d 1f77 a73b
00000080: 6241 213d b278 fa3c 7484 233d 7b26 e03c
00000090: 1481 663c f604 973b 8a6e 103a 669e 463d
000000a0: 3464 523c 1305 ec3c 4bb8 223d 01ee d8bc
000000b0: bd94 75bd b4d9 723d 535a 963c 06c0 26bd
000000c0: 6334 883d 4ada 43bd 0e83 4b3d 8b2a 5a3c
000000d0: e9ef 2b3d 4559 573d 0645 29bb 3d6d 773d
000000e0: ad62 87bc 473b 4dbc 43e9 f4bc 7789 0dbd
000000f0: 0060 c4bb 3d8a 033d 1aee 1cbd ace0 ad3c
00000100: 8274 023d 4fad b23b 7052 543d 9d55 343c
00000110: 0d0b be3c 1c86 093d a50c 5cbd 4fae 85bd
00000120: daf7 b0bc a1ee 263d a8cb fdbc 1304 06bc
00000130: ff6f 303d 254e 66bd 9211 80bd e589 04bd
00000140: bbe5 873c 2f4a ccbc 1982 82bd 9027 393d
00000150: 306b 363c 306d 2639 d315 ecbc cb9a 73bd
00000160: 36bb 6b3d 60ca 71bc fa84 4cbd c275 e83c
00000170: 5a2d 423d f385 07bc a44c febb 4080 583c
00000180: 0f75 503b a49d 39bd 8ac9 3d3c addf 91bc
00000190: 3ef1 1e3d 6e14 6c3d 92cb 0f3d 7e53 833c
000001a0: bcc8 3d3d cee8 e33c b8ce c7bc 4341 073c
000001b0: 2495 93bc 7591 52bd 739b 01bd 991b 32bd
000001c0: 6419 f3bc 3b38 2a3d e7f5 11bd 5e6d 283d
000001d0: ac5d 9c3a 1a86 303c 2a3a 933c 7364 7fbb
000001e0: 6ed4 683c f0b3 19bd 19fd e43c 82e6 90bc
000001f0: 22d8 b7bc af04 383c 8e05 103d fd6d 203d
0.023884775 0.034985546 -0.018875552 0.008776925 0.026116256 0.01800778 -0.051832277 0.015867896
-0.055381715 -0.027851455 -0.035055447 0.0628542 -0.04375963 -0.0010731758 -0.05106943 0.04559856
-0.007227945 0.06413761 -0.019385641 -0.012831794 -0.04275228 0.013521541 -0.03069731 -0.0028754105
0.03468401 -0.03658228 0.039208718 0.033998698 0.00494774 0.060667027 0.04039741 0.005110636
0.039368995 0.03057513 0.03992124 0.027362099 0.014068861 0.0046087457 0.00055096357 0.048490904
0.012841273 0.028811013 0.039726537 -0.026480677 -0.0599563 0.05928965 0.018353617 -0.04071047
0.06650617 -0.0478156 0.04968553 0.013315807 0.041976843 0.05257537 -0.0025828495 0.060406912
-0.016526544 -0.01252634 -0.029896384 -0.034554925 -0.0059928894 0.032114256 -0.03831301 0.021225296
0.03184939 0.005452789 0.05183643 0.01100674 0.023198629 0.033575162 -0.053722996 -0.06527387
-0.02160256 0.040754918 -0.0309809 -0.008179682 0.043075558 -0.05622687 -0.06253351 -0.03235807
0.016589036 -0.024937717 -0.063724704 0.045203745 0.011133954 0.00015871669 -0.028819 -0.059473794
0.057551585 -0.014757723 -0.049931504 0.028376464 0.047406532 -0.008271682 -0.007760601 0.013214171
0.0031808054 -0.045316353 0.011583695 -0.017806852 0.038804285 0.05763667 0.03510625 0.016031023
0.046334013 0.02782097 -0.024390563 0.008255306 -0.018015452 -0.05140825 -0.03164239 -0.04348335
-0.029675193 0.04155753 -0.0356349 0.041119926 0.0011929772 0.01077416 0.01797207 -0.0038969785
0.014210803 -0.037525117 0.027952718 -0.01768804 -0.022441927 0.011231585 0.035161547 0.039167393

fc2.weight f4 [1, 128]
00000000: 76ae 96bd 0023 90bd 3e7f 413d 073c 953d
00000010: 87ae 8fbc 433b 10bd 9af8 86bd 130d 5d3d
00000020: 3860 6d3d 3801 b03d cbbb 753d f029 87bd
00000030: 78e4 953d 9bbb 20bc 9645 b13d 4dd1 823c
00000040: a660 963d d844 b7bc 3d21 aebd 3f71 c63c
00000050: 832f 773d d0c8 a53d 9012 953c d933 3a3d
00000060: f2bb a03d b32a 06bd 05f0 34bd 3f3d a5bd
00000070: e121 753d ad2f ba3d 7508 913d 7860 563d
00000080: e078 67bb a27c 6ebd 09a8 5e3c 2151 eb3c
00000090: 8d86 adbc 97ee 15bd 1a85 593d 633d 19bd
000000a0: ae04 67bd 6d23 863d 8d95 1fbd aa77 dbbc
000000b0: 4332 893d 7c16 78bd 2865 223d 1738 113c
000000c0: 8811 c33c 05c0 0b3d 8069 56bc 6907 eabc
000000d0: 0174 11bd bdde 7ebd 7829 373d 3ce8 8bbd
000000e0: 6310 44bd 6cce 493c a926 25bc cbbf b53d
000000f0: 533e b2bc f5ab 0fbc 3c4d 773c a502 ba3d
00000100: 6f7f 6bbd b7a7 03bd f822 e6bc c76a b23d
00000110: 56d5 a83d 2a2f 1c3d 1ec5 75bd 51ed 893d
00000120: 1743 bcbc e724 3ebd 323a 86bd f418 2fbd
00000130: 7155 99bd c405 173d 5ec7 443d 0d90 1bbd
00000140: 9e5f 4a3c b77a be3b a3ca 533b c932 f93c
00000150: d38d 93bc 186a afbd 37ff b0bd dbd2 613d
00000160: ad9d 0abd 2947 573d 7fa4 793d 2f64 edbc
00000170: c10d eabc 31b8 3ebc 40d8 b0bd b5cc 183d
00000180: 9880 a63d 6d53 94bd eb42 463d 2c18 b2bd
00000190: 9d2f 593d 49c3 e93c df37 85bc 2d0e 923d
000001a0: de9e 54bd b104 263d 0b28 6f3d fd47 a63d
000001b0: e094 8abc 0daa a0bd dbca 34ba b023 a63d
000001c0: 75ee 963c 6ad0 1d3c f577 c73c 2ca7 bcbd
000001d0: d0d3 c7bc 9683 bd3d c6dd 023d c2bf 2dbd
000001e0: c281 343d bc5c 0dbd 66b1 8fbd 32e3 fbbc
000001f0: 25d8 fa3c c791 35bd 5b08 2e3d 5789 15bd
-0.073574945 -0.07037926 0.04724049 0.0728684 -0.017539276 -0.035212766 -0.06590386 0.053967547
0.05795309 0.085939825 0.059993546 -0.06599796 0.073189676 -0.009810354 0.086558506 0.015968943
0.07342653 -0.022371694 -0.085024334 0.024223922 0.060348045 0.080949426 0.018197328 0.045459602
0.07848348 -0.032755565 -0.044174213 -0.080683224 0.059846763 0.09091125 0.07081691 0.052338094
-0.003531985 -0.058224328 0.013589867 0.028725209 -0.021182323 -0.03660449 0.05310545 -0.03741206
-0.056400947 0.06549726 -0.038960982 -0.026790459 0.0669904 -0.060568318 0.03964725 0.0088634705
0.02381207 0.03411867 -0.013086677 -0.028567987 -0.03551102 -0.06222414 0.044717282 -0.068314046
-0.04786719 0.012317281 -0.010080018 0.08874472 -0.021758234 -0.008769025 0.015094098 0.09082536
-0.057494577 -0.032142367 -0.028092846 0.087117724 0.082438156 0.038130917 -0.06000244 0.06734718
-0.02298121 -0.04642191 -0.065540686 -0.042748407 -0.07487 0.036870733 0.048041694 -0.037979174
0.0123518985 0.0058129686 0.0032316826 0.030419724 -0.018011963 -0.08565158 -0.08642428 0.055132728
-0.033841778 0.052558098 0.06094789 -0.028978435 -0.028571011 -0.011640594 -0.086349964 0.0373046
0.08129996 -0.07242475 0.04840366 -0.08696017 0.053023923 0.028535502 -0.016261993 0.0713161
-0.05190932 0.040531818 0.058387797 0.081191994 -0.016916692 -0.078449346 -0.0006896683 0.081122756
0.018424252 0.009632209 0.024349192 -0.09211573 -0.024392992 0.09253614 0.03194978 -0.042419203
0.04406906 -0.034512267 -0.07016258 -0.030747984 0.030620644 -0.044328477 0.042488437 -0.03650793
